data.pth (torch, 4759 bytes, 6 tensors)

l1.weight f4 [8, 50]
00000000: 1217 2ebe 6445 8fbd c0fb fd3e f569 0fbe
00000010: 14a3 513e 5666 fb3d 6eeb f13e 6a03 a23e
00000020: 81a9 ca3e 3809 c93e e293 793f 941e 303f
00000030: 7049 413f cbd1 2c3e 4795 2b3f a9cb 05bd
00000040: 3c67 253e c6f0 e6be 4ec5 79be 98f1 e1be
00000050: 59c5 d1be 7bfe 26bd cfa4 3c3f df7a ba3d
00000060: b844 31be 6331 fd3d 0987 3d3f f43b e7bd
00000070: 2c82 a63e a2fe 2c3f b0c1 5b3c 4e19 cb3e
00000080: 974c 563f 83bf a63e 101e f43e a31b c53d
00000090: 45ba 4e3e 2785 183e be9a a13e f6cc acbc
000000a0: a716 503f 8da3 393f 68dd 11bf b63f 18bd
000000b0: 6155 d93d 36f4 edbd ee2b 263f 6854 a13e
000000c0: 7630 f33d 294b 843e 5707 2a3e 143c a03e
000000d0: 5e3b f23e 0acb 58be 3944 c4bd 31eb 8e3e
000000e0: e719 ea3e bb65 a13e ae26 4f3f 951e c83e
000000f0: 5d67 b73e 6998 113f 7e91 8b3e 7f7a 2b3e
00000100: f638 523d 1e16 ff3e bae9 943e 853c f2be
00000110: 339b 663d a11d 02bf 9af3 f5be 777b 3bbf
00000120: 4662 dc3e a682 0c3e 9e04 53be f556 193e
00000130: bf74 b93e 683b c13e 4fc4 d23e 6c61 513b
00000140: 7491 c83d 3d3f 0e3f 0eb7 ba3e 8dad 993e
00000150: 132a f13e c649 433e 816b 073f 4b5e 593e
00000160: 7229 8b3e 7105 a43c 4f39 843e 77e2 1c3f
00000170: e991 20be 44c8 1a3e 6701 313e b0ba 0abe
00000180: 0a2f c83c f596 0b3f ab9d 833e 0a53 7b3e
00000190: 67da 033f e409 923e 06ba d1be 2312 133f
000001a0: dbd9 d83e 0e16 71be b0e9 72bd 5746 73be
000001b0: dfc2 fabe 4c18 10be 201f 2cbe c6c6 4dbe
000001c0: e3fc 85be 3f27 2bbe 94b4 ebbd a7fc 9abe
000001d0: c253 4a3c 6106 113f 29f2 823e 2187 323f
000001e0: 7b84 193f 5336 cb3e 7133 4cbe eae4 e6bd
000001f0: 58f5 d83e 50a2 a1be 42bd 4bbe 5961 8d3e
00000200: cfb9 7fbe 04b8 30be 756a 90bd afe4 09bf
00000210: da4b 3ebe 6372 b2bb 5772 31be 4a5f 9fbd
00000220: c31f 58be cbba b7bb 9a6a cdbd 9ea2 1fbe
00000230: b1e8 edbd 09c5 98be cef2 1d3f ddb6 fc3e
00000240: 95e3 7cbc f6f1 1f3f fdac c33c 7be7 41be
00000250: 0d2b 6b3e f758 8cbd 4ccf 49be a5a1 0ebe
00000260: a289 df3e 07a6 e43d 90bb 2dbe 1498 6c3f
00000270: e58b ac3e aed4 783e 658a 1d3f 1721 c03e
00000280: 7fa7 87be 584c f93e 4681 f4bd 206c 953e
00000290: 2849 6cbe 4d63 3a3f 7566 df3d d4db c0be
000002a0: a6e3 26be ce7c d5be 2ce2 b6be aeaa f6be
000002b0: 59b2 16be 96d0 603e c720 0abe 8d4f 343f
000002c0: e5a3 2abe 1278 4a3d 2bb4 6d3e cf27 81be
000002d0: 539c cd3e 24c0 b93e 85f4 10bd 4f81 413e
000002e0: b9af b93e 3201 883e 60df 063f c92d 353e
000002f0: 23e9 8c3d 6205 0a3f d472 9b3d 7158 c63e
00000300: 18ca 16bf 25f1 4bbe 4059 e53e a72e f03d
00000310: a356 49be 848e 993e 8e97 3d3d 8102 723e
00000320: 8ffa 90be be37 dbbd 83f5 a9bd dc54 003f
00000330: e9cc 06be daf8 98be 4eb7 49bd aab2 febd
00000340: 2a97 77bd a980 183d 3717 30be 2fd1 bfbd
00000350: 8d3c ebbb 4c99 a7bc 76f2 b5bd 27b8 cfbe
00000360: ec9f 2bbd 37ff 423f 8a06 17be e756 443f
00000370: e787 453f 9ccc 3abe 0a20 c6bd 45bf 06be
00000380: 7ea9 133f d388 483e 6df9 f4bd 0eba 5cbd
00000390: 7b36 dcbd 4a90 debd 0888 9d3e b048 bfbd
000003a0: 09da bfbd 335f 65bd 0332 01be 0ea7 cfbd
000003b0: 9208 38be b416 0c3d 8627 d53d d0d1 623e
000003c0: b41c 4b3d dbf6 d3bd 26a8 91be 5bb9 0ebe
000003d0: aba4 7b3e 0aee d23e fbe0 ee3c ab87 0dbe
000003e0: 6cf8 90be ef2d 33bd 859a 803f c4a4 b33e
000003f0: 9a45 8bbe df95 a33d 9c34 5b3e da20 0dbf
-0.17000988 -0.06995657 0.49606133 -0.14005263 0.20472366 0.122753784 0.4724993 0.3164323
0.39582446 0.39264846 0.97491276 0.6879666 0.7550268 0.16876905 0.67024654 -0.03266493
0.16152662 -0.4510557 -0.24391672 -0.44129634 -0.40970877 -0.040770035 0.7368898 0.09105467
-0.1731137 0.123629354 0.7403417 -0.11290732 0.32521188 0.6757604 0.013412878 0.39667743
0.83710617 0.32567987 0.47679186 0.09624412 0.20188244 0.14894544 0.3156337 -0.021093827
0.81284565 0.72515184 -0.56978464 -0.037170134 0.10611988 -0.11618845 0.6491078 0.3150971
0.118744776 0.25838593 0.16604362 0.31295836 0.4731092 -0.21171203 -0.09583325 0.27913812
0.45722887 0.31522927 0.80918396 0.39085832 0.35821047 0.56873184 0.2725944 0.16745947
0.051323853 0.49821562 0.2908457 -0.47311798 0.056300353 -0.5082646 -0.48037416 -0.7323527
0.43043727 0.13721713 -0.2060723 0.14974578 0.36221883 0.37740636 0.41165397 0.0031948937
0.09793368 0.55565244 0.36467785 0.3001522 0.47102413 0.19071111 0.5289841 0.21227376
0.27180058 0.020022126 0.25824973 0.6128306 -0.1568066 0.15115458 0.17285691 -0.13547778
0.024436492 0.5452722 0.2570623 0.24543396 0.5150513 0.2852317 -0.40962237 0.5744955
0.4235371 -0.2354357 -0.059304893 -0.23757301 -0.489768 -0.14071769 -0.16808748 -0.20095357
-0.261695 -0.1671419 -0.11509052 -0.30270883 0.012349071 0.5665036 0.2557538 0.6973744
0.59967774 0.39689884 -0.19941498 -0.11274131 0.42374682 -0.31569147 -0.19896415 0.27613333
-0.24973224 -0.17257696 -0.07051555 -0.5386457 -0.18583623 -0.005445765 -0.17328773 -0.07781847
-0.21105866 -0.0056069843 -0.10030098 -0.15589377 -0.11616648 -0.29837826 0.61698616 0.49358264
-0.015435119 0.6247858 0.023886198 -0.18935959 0.22965641 -0.06852906 -0.19707984 -0.1392885
0.43659693 0.1116448 -0.1696608 0.9241955 0.3370048 0.24299881 0.615393 0.37525246
-0.26494977 0.48691058 -0.119387195 0.29184055 -0.23074782 0.7280777 0.10908214 -0.37667716
-0.16297778 -0.4169678 -0.3571943 -0.48177093 -0.14716472 0.21954569 -0.13489066 0.70433885
-0.16664083 0.049430914 0.2321326 -0.25225684 0.40158328 0.36279404 -0.035389442 0.18896984
0.36266878 0.26563412 0.52684593 0.17693247 0.06880405 0.53914464 0.07590261 0.3873935
-0.5890212 -0.19916208 0.44794655 0.11727648 -0.19661956 0.29991543 0.046287112 0.23633768
-0.2831616 -0.10703991 -0.08298781 0.50129485 -0.13164105 -0.2987736 -0.04924708 -0.12436421
-0.060446896 0.037232075 -0.17196356 -0.093660705 -0.007178849 -0.02045884 -0.088841364 -0.40570185
-0.04190056 0.76170677 -0.14748588 0.766951 0.77160496 -0.18242115 -0.0967408 -0.13158901
0.576805 0.19583444 -0.11961637 -0.053888373 -0.10752579 -0.10867365 0.30767846 -0.09340036
-0.09367759 -0.055998992 -0.12616734 -0.10139285 -0.1797202 0.03420134 0.10407929 0.2215035
0.04958792 -0.10349818 -0.284486 -0.13937895 0.24574535 0.41197234 0.029160013 -0.13821284
-0.2831453 -0.043744978 1.0047156 0.35086644 -0.2720154 0.0798757 0.21406788 -0.5512825

l1.bias f4 [8]
00000000: 4aef e63e 7c90 143f 640b 553f c6e7 1a3f
00000010: 1644 113f 6a20 0d3f 4778 4f3f 729b 6d3f
0.45104438 0.58032966 0.83220506 0.6050991 0.56744516 0.55127585 0.81042904 0.92815316

l2.weight f4 [8, 8]
00000000: f02c afbe 6bfc 123e abb6 093d 819c 4bbe
00000010: 82e9 3c3e 8bcd 62be f27c bf3c 142e 403d
00000020: 52ff 4ebe 40f5 39bd 865a b2be dc8c 90be
00000030: c19a 87be 5c80 84be be68 223e e013 953c
00000040: b8be 9b3f ff03 3e3f 6a5b 80bf 5967 863d
00000050: 212d 67be d5a0 cd3e 9212 8a3e 49d3 3abf
00000060: cd8e 2c3e 983f 193f f8b9 99bd e480 903f
00000070: 0803 03bf a82e 3bbf fd56 5a3f a74d e13d
00000080: 28c5 e3be c45f 33bf 7b5e 9b3f 5acb 85bf
00000090: f9e2 863f b6f5 373f 0069 8d3f 21a8 953e
000000a0: 275a 013e a7b6 b63e 6420 813e e8be 793f
000000b0: 131b 4a3f bba0 25bf 1bc2 793e 388e b03f
000000c0: 1bf3 8bbe 2b77 2dbe 9029 ccbc 8f96 00be
000000d0: 66f8 443e 8fae 89be ce6c 97be d8b8 95be
000000e0: 8ca9 9bbd 60cb 283f cb0a df3d d9f7 9f3e
000000f0: a553 cbbe f7ee b13e a61e 9a3f 6f34 8fbf
-0.34213972 0.14354102 0.03362147 -0.1988392 0.18448451 -0.22148721 0.023375008 0.046918944
-0.20214584 -0.045399904 -0.3483469 -0.28232467 -0.26485255 -0.2587918 0.15860268 0.018197954
1.2167578 0.7422485 -1.0027897 0.06562681 -0.22575809 0.40161768 0.26967293 -0.72978646
0.16851349 0.5986266 -0.07506174 1.1289334 -0.511765 -0.73118067 0.85288984 0.11001139
-0.44486356 -0.70068 1.2138208 -1.0452683 1.0538017 0.718593 1.1047668 0.29229835
0.12632047 0.35686228 0.25220025 0.97556925 0.7894756 -0.6469838 0.24390452 1.3793402
-0.27333912 -0.1693999 -0.024922162 -0.12557434 0.19235381 -0.2689099 -0.295752 -0.29242587
-0.07600698 0.65935326 0.108907305 0.3124378 -0.39712253 0.34752628 1.2040603 -1.1187876

l2.bias f4 [8]
00000000: 8305 34be f5c4 a3be 4db7 963e f5be 973d
00000010: 5b4f 0f3f a05a 0b3f a8a1 b93d f04b 993e
-0.17580228 -0.31986204 0.29436722 0.07409469 0.5598046 0.5443516 0.090640366 0.29940748

l3.weight f4 [5, 8]
00000000: 1781 48be 0bb7 903e 1fb8 253f 5271 88bf
00000010: 9723 39bf 14d3 8bbf 713e a7be abd4 a23e
00000020: 8dba 8ebe 3838 1d3d 1422 8bbf 2037 213f
00000030: 217c 8cbf 10b5 583f 8992 88be 70c6 6bbf
00000040: b99b 9abd 449b 853d d99f f3be 9b6c b1bf
00000050: 0e9d 163f f721 de3e 4051 74be 9448 87bf
00000060: af98 9c3e 78bd 0ebd d9b4 8abd ed86 c83e
00000070: b005 54bf be24 19be d354 19be bdc8 fc3e
00000080: eebd a83d 20a4 a4be 061c 3ebf 5f06 2abf
00000090: f299 c53e eae4 92bf bc9d cc3d ade7 663f
-0.19580494 0.2826465 0.6473407 -1.0659583 -0.7231993 -1.0923791 -0.32664827 0.31802878
-0.27876702 0.038383693 -1.0869775 0.6297474 -1.0975381 0.8465128 -0.26674297 -0.92099667
-0.07549233 0.06523755 -0.47582892 -1.3861269 0.58833396 0.43385288 -0.2385912 -1.0569024
0.30585238 -0.03484866 -0.06772775 0.3916544 -0.8282118 -0.14955422 -0.14973764 0.493719
0.08239351 -0.32156467 -0.7426151 -0.6641597 0.38594013 -1.1476109 0.09991023 0.9019726

l3.bias f4 [5]
00000000: 1d8d b13d 0352 5e3e cca5 b83d 68b7 bbbe
00000010: bcfe 49bd
0.08669493 0.21710972 0.09015998 -0.36663365 -0.0493152
